…
tup_training_pipeline called with args 
08/03/2025 10:07:52 PM Device: cpu
08/03/2025 10:07:52 PM Batch size: 32
08/03/2025 10:07:52 PM Learning rate: 0.001
08/03/2025 10:07:52 PM Step 1: Creating data splits...
08/03/2025 10:08:14 PM Step 2: Creating data loaders...
08/03/2025 10:08:14 PM Step 3: Initializing model...
08/03/2025 10:08:14 PM Model running on CPU
08/03/2025 10:08:14 PM Step 4: Ready to start training!
08/03/2025 10:08:14 PM function train_model called with args AquaticLifeCNN(
  (feature_extractor): FeatureExtractor(
    (stage1): Sequential(
      (0): ConvBlock(
        (conv): Conv2d(3, 32, kernel_size=(7, 7), stride=(2, 2), padding=(3, 3), bias=False)
        (bn): BatchNorm2d(32, eps=1e-05, momentum=0.1, affine=True, track_running_stats=True)
        (relu): ReLU(inplace=True)
      )
      (1): MaxPool2d(kernel_size=2, stride=2, padding=0, dilation=1, ceil_mode=False)
      (2): ConvBlock(
        (conv): Conv2d(32, 64, kernel_size=(3, 3), stride=(1, 1), padding=(1, 1), bias=False)
        (bn): BatchNorm2d(64, eps=1e-05, momentum=0.1, affine=True, track_running_stats=True)
        (relu): ReLU(inplace=True)
      )
      (3): ConvBlock(
        (conv): Conv2d(64, 64, kernel_size=(3, 3), stride=(1, 1), padding=(1, 1), bias=False)
        (bn): BatchNorm2d(64, eps=1e-05, momentum=0.1, affine=True, track_running_stats=True)
        (relu): ReLU(inplace=True)
      )
    )
    (stage2): Sequential(
      (0): MaxPool2d(kernel_size=2, stride=2, padding=0, dilation=1, ceil_mode=False)
      (1): ConvBlock(
        (conv): Conv2d(64, 128, kernel_size=(3, 3), stride=(1, 1), padding=(1, 1), bias=False)
        (bn): BatchNorm2d(128, eps=1e-05, momentum=0.1, affine=True, track_running_stats=True)
        (relu): ReLU(inplace=True)
      )
      (2): ConvBlock(
        (conv): Conv2d(128, 128, kernel_size=(3, 3), stride=(1, 1), padding=(1, 1), bias=False)
        (bn): BatchNorm2d(128, eps=1e-05, momentum=0.1, affine=True, track_running_stats=True)
        (relu): ReLU(inplace=True)
      )
      (3): ConvBlock(
        (conv): Conv2d(128, 128, kernel_size=(3, 3), stride=(1, 1), padding=(1, 1), bias=False)
        (bn): BatchNorm2d(128, eps=1e-05, momentum=0.1, affine=True, track_running_stats=True)
        (relu): ReLU(inplace=True)
      )
    )
    (stage3): Sequential(
      (0): MaxPool2d(kernel_size=2, stride=2, padding=0, dilation=1, ceil_mode=False)
      (1): ConvBlock(
        (conv): Conv2d(128, 256, kernel_size=(3, 3), stride=(1, 1), padding=(1, 1), bias=False)
        (bn): BatchNorm2d(256, eps=1e-05, momentum=0.1, affine=True, track_running_stats=True)
        (relu): ReLU(inplace=True)
      )
      (2): ConvBlock(
        (conv): Conv2d(256, 256, kernel_size=(3, 3), stride=(1, 1), padding=(1, 1), bias=False)
        (bn): BatchNorm2d(256, eps=1e-05, momentum=0.1, affine=True, track_running_stats=True)
        (relu): ReLU(inplace=True)
      )
      (3): ConvBlock(
        (conv): Conv2d(256, 256, kernel_size=(3, 3), stride=(1, 1), padding=(1, 1), bias=False)
        (bn): BatchNorm2d(256, eps=1e-05, momentum=0.1, affine=True, track_running_stats=True)
        (relu): ReLU(inplace=True)
      )
    )
    (stage4): Sequential(
      (0): MaxPool2d(kernel_size=2, stride=2, padding=0, dilation=1, ceil_mode=False)
      (1): ConvBlock(
        (conv): Conv2d(256, 512, kernel_size=(3, 3), stride=(1, 1), padding=(1, 1), bias=False)
        (bn): BatchNorm2d(512, eps=1e-05, momentum=0.1, affine=True, track_running_stats=True)
        (relu): ReLU(inplace=True)
      )
      (2): ConvBlock(
        (conv): Conv2d(512, 512, kernel_size=(3, 3), stride=(1, 1), padding=(1, 1), bias=False)
        (bn): BatchNorm2d(512, eps=1e-05, momentum=0.1, affine=True, track_running_stats=True)
        (relu): ReLU(inplace=True)
      )
      (3): ConvBlock(
        (conv): Conv2d(512, 512, kernel_size=(3, 3), stride=(1, 1), padding=(1, 1), bias=False)
        (bn): BatchNorm2d(512, eps=1e-05, momentum=0.1, affine=True, track_running_stats=True)
        (relu): ReLU(inplace=True)
        (dropout): Dropout2d(p=0.1, inplace=False)
      )
    )
    (global_pool): AdaptiveAvgPool2d(output_size=(1, 1))
  )
  (classifier): Classifier(
    (stage1): Sequential(
      (0): Linear(in_features=512, out_features=256, bias=True)
      (1): ReLU(inplace=True)
      (2): Dropout(p=0.5, inplace=False)
    )
    (stage2): Sequential(
      (0): Linear(in_features=256, out_features=128, bias=True)
      (1): ReLU(inplace=True)
      (2): Dropout(p=0.3, inplace=False)
    )
    (stage3): Sequential(
      (0): Linear(in_features=128, out_features=46, bias=True)
    )
  )
), <torch.utils.data.dataloader.DataLoader object at 0x197c486a0>, <torch.utils.data.dataloader.DataLoader object at 0x19abbe0d0>, {'source_data_dir': '/Users/adonisserrano/Documents/GitHub/aquatic-life-classifier/data/processed', 'split_data_dir': '/Users/adonisserrano/Documents/GitHub/aquatic-life-classifier/data/splits', 'batch_size': 32, 'num_epochs': 50, 'learning_rate': 0.001, 'device': 'cpu'}
…
